model/model.pth (torch, 32969 bytes, 4 tensors)

linear1.weight f4 [512, 11]
00000000: 79fd 7bbe 8b2a 7dbe a77a a63f ba33 cb3c
00000010: f7c9 64be ae6e b2bb 3711 013f 459b 93be
00000020: 5597 143e 8d31 2cbe 9373 21be b28b 803f
00000030: 5bae 963f 937a b0be 9603 173d 0b2e a2bc
00000040: 99b8 43be e82f ff3d 3d80 ac3e 9ac6 ad3d
00000050: 554e 47be 49c1 15bd e15b 803f 0a04 103f
00000060: 5b6d 873f e7f0 1fbe 6f22 583d 40be 133e
00000070: df66 7cbd 78a0 b7bd 00d2 c43e 6969 bf3e
00000080: 8096 8e3e 2cbd f33e fbff aebe c762 a4be
00000090: bf92 b0be eab2 90be 5bb7 44be 5bf6 86be
000000a0: 7655 46be a661 12bf b189 a0be 6e8e 29be
000000b0: 678c 423f 575d c9be b3c4 d5bb a05e 053f
000000c0: 86a0 07bf 8248 0cbf ba24 9abc 9a00 afbe
000000d0: dde2 29bf 6608 36bf 83ad 9b3e eb9a 853f
000000e0: a5eb 803e 5418 4f3f c6f3 cfbe 1891 47bc
000000f0: f548 8cbe bcd6 a6be f799 d4bd a525 39bd
00000100: 730b 143e e678 143d 794a 87be 86e9 45be
00000110: 844e f73d 3426 5abe 8c00 183e a0b7 b93d
00000120: 858c 20be e6bc 92bd 0aa0 b3bd fc29 00be
00000130: 2bfe 93be cf6e 0b3f 6ae6 99bd e123 c73e
00000140: edfe 06be c6ce 3bbf e48f 75be d66c cebd
00000150: 1d9f 3abe 4854 aebe 16d3 6dbe db48 5fbe
00000160: b872 6dbf e148 943f db48 5abe ca6a 6e3d
00000170: dd8f bd3d 15b9 223e 0927 d93d d717 18bd
00000180: e7d2 e23d 5443 6d3b 9a77 8dbd 164c a13e
00000190: bc21 8ebc eaf1 123d 9e92 c93e 0475 5fbf
000001a0: 9a87 48bf c93a 2d3e 46a0 043f 5b2e 32bf
000001b0: e052 ebbe f63d 26bf 5df9 3d3f 3c6e 16bc
000001c0: 38c6 823e 381d a53d bada bfbe 336f 483d
000001d0: ae6f 5bbe 2bd7 38be 11c5 22be c099 b33d
000001e0: 3b10 763d f4db 183f 5434 3e3f 63ec 7c3f
000001f0: f2b2 85bd a185 16be 4442 49be 9214 0ebe
00000200: 66c4 933d 44f2 873d 6479 663d 8fd0 3d3e
00000210: ea61 59be 67b4 20be 3edd 4bbc 5ae7 68be
00000220: dc10 903d d38b 6c3d d1df 63bd 5d13 173e
00000230: c9ce 313d 9db5 e83a 927d 4ebe a1ec 04be
00000240: f85e 04be 16ce a13f bbf9 f83d 698a 31be
00000250: 8c81 b3be 3c2f 6c3e a087 adbe d398 d4be
00000260: 2632 ac3d 9b0d e53e fa51 253f 3515 97bc
00000270: dc5f f0be 885d 7b3e 0e2c 30bf 62d4 0e3f
00000280: 90b5 41be 2365 4bbf 30aa ccbe a240 f0bd
00000290: 5ec0 e13e 3ab1 613d 9b92 3fbf fe8e b03d
000002a0: c5dd 28be 59d9 9e3d 354e 64be aafc afbe
000002b0: ff5a c3bd e2b3 96be 8a12 f4bd 034e 26be
000002c0: 1d3a 143f f38f 943e 6dd4 c23e 8377 94be
000002d0: 3e94 87be 19dd 073c 6a94 84be 145d b53d
000002e0: bf46 c1bd 08ae 4dbd 2457 0bbe d492 473e
000002f0: 91af ee3d 88a5 3fbd f2d4 33bf 3691 a63e
00000300: 8bec 873e 64a4 44bf 5635 2dbf 9f4f fd3e
00000310: 3991 40bf 7f5d 81bf 89a4 aa3e b2c8 03be
00000320: ec8d 0bbd 0eed debd 4736 10be e96f d9bd
00000330: 5f48 7abe 83b8 9abd 0ef6 f3bd ba35 edbe
00000340: 4fef c2bd ec32 03be 07b3 c63f 2cc1 e3be
00000350: 07e7 24be 5af1 13be 27fc c6bd b2ab 80be
00000360: 921f 1bbd aeea 0ebd 022a 153e 5de5 233e
00000370: 71c4 893f 994f 3ebf 7a40 b83c 2fe2 d3be
00000380: 9ffb 2dbe 04d7 cd3e 0f01 7c3e 6d28 ecbe
00000390: afbc a83e 84b8 23bf 3b05 71be c821 10bf
000003a0: d002 1bbd eeb9 223e 4875 703e ce7a 9c3e
000003b0: 0f39 953e 8c30 8d3e 45cf a0be 0acc 90be
000003c0: 43ce 79be 1ab7 3ebe 044d 73bd 6151 97be
000003d0: 503a aa3c a029 9a3c f63f 9bbd 8e1e 50be
000003e0: 405d c3bb 3e2e 84be ef0f 97be e4d6 143e
000003f0: c2b8 2d3e e24d 3e3f 7f59 30be aeb7 543e
-0.24608411 -0.2472326 1.300618 0.024804939 -0.22342668 -0.005445323 0.5041689 -0.288294
0.14510854 -0.16815777 -0.15766744 1.0042632 1.1771959 -0.34468517 0.036868654 -0.019797346
-0.19113387 0.12460309 0.33691588 0.08485146 -0.19463475 -0.036561284 1.0028039 0.56256163
1.0580248 -0.1561924 0.052767213 0.14428043 -0.061621543 -0.08966154 0.38441467 0.3738511
0.27849197 0.47605264 -0.34179673 -0.3210661 -0.34486958 -0.282615 -0.1921057 -0.2635983
-0.19368538 -0.5718025 -0.3135505 -0.16558239 0.75995487 -0.39329025 -0.0065236925 0.5209751
-0.52979314 -0.5479814 -0.01881634 -0.34180146 -0.6636179 -0.71106565 0.30405816 1.0437902
0.25179783 0.80896497 -0.40615672 -0.012180589 -0.27399412 -0.32585704 -0.10380929 -0.045201916
0.14457493 0.03624811 -0.26424006 -0.19327363 0.120755225 -0.21303636 0.14843959 0.09068227
-0.15678604 -0.07164936 -0.087707594 -0.12516016 -0.28904852 0.54465955 -0.07514651 0.3889456
-0.13183184 -0.73362386 -0.23980671 -0.100793526 -0.1822476 -0.34048676 -0.23225054 -0.21805136
-0.9275317 1.1584741 -0.21316855 0.05820731 0.09255955 0.15890916 0.106031485 -0.03713211
0.11075383 0.003620346 -0.06907578 0.3150336 -0.01735007 0.03587524 0.39369673 -0.87287927
-0.7833191 0.16916956 0.5180706 -0.6960198 -0.45961666 -0.64938295 0.74208623 -0.009181555
0.25541854 0.08062214 -0.37471563 0.048934173 -0.21429321 -0.1805083 -0.15895487 0.0876956
0.060074072 0.5971062 0.74298596 0.987982 -0.06528272 -0.14699413 -0.19654185 -0.13875034
0.072151944 0.066380054 0.05626811 0.1853659 -0.21228758 -0.15693818 -0.012442885 -0.22744504
0.07034466 0.057750534 -0.05563337 0.1475348 0.043410096 0.001775432 -0.20165089 -0.12980892
-0.12926853 1.2641017 0.12157007 -0.17337956 -0.35059774 0.23064893 -0.33892536 -0.41522846
0.084080026 0.44736943 0.6457821 -0.01844273 -0.46948135 0.24547398 -0.6881722 0.5579282
-0.18916917 -0.794512 -0.39973593 -0.11731078 0.44092077 0.055100657 -0.7483308 0.086210236
-0.16490848 0.077562995 -0.22295459 -0.34372455 -0.095388405 -0.29434115 -0.119175985 -0.16240697
0.57901174 0.29016075 0.38052693 -0.2899743 -0.26480287 0.00829246 -0.2589448 0.08855644
-0.09437322 -0.050214797 -0.1360746 0.19489604 0.116545804 -0.046788722 -0.70246804 0.32532662
0.26547655 -0.7681334 -0.6765951 0.4947481 -0.7522159 -1.0106658 0.33328655 -0.12869528
-0.034070894 -0.10885058 -0.14083205 -0.10617048 -0.2444167 -0.07554724 -0.119121656 -0.46330053
-0.09518301 -0.12812394 1.5523385 -0.44483316 -0.16103755 -0.14447537 -0.09716063 -0.25130993
-0.037871905 -0.034891777 0.14566806 0.16005464 1.0763074 -0.74340206 0.022491682 -0.41383502
-0.16990517 0.40203106 0.24609779 -0.46124592 0.32956454 -0.63953424 -0.23537152 -0.56301546
-0.03784448 0.15891239 0.23482239 0.30562443 0.29145095 0.275761 -0.31408134 -0.2828067
-0.24395089 -0.18624535 -0.05939962 -0.29554275 0.020779759 0.018818676 -0.07580559 -0.20324156
-0.005962044 -0.2581653 -0.29504344 0.145351 0.16965011 0.7433759 -0.1722164 0.20773193

linear1.bias f4 [512]
00000000: f842 fcbc 7412 f6bd ef01 f7be a3ee 1abe
00000010: 6817 703e aeb2 81be 77c7 82be de37 0dbd
00000020: 59e5 4f3f f947 3b3e 9f45 d2be d2b7 53be
00000030: 2248 61be 069f 1abe 10be 5a3e 0dda 21be
00000040: 4553 a5be f230 213e 12d7 4bbe e609 e9bd
00000050: 5f20 87bd 9f2f 3d3f aed7 88be c344 89be
00000060: 476e a7bd 10d4 fdbd ec20 cfbe e3eb cb3e
00000070: eccd 5fbe 8bfd 35bd 1b68 a2be 0f58 a7be
00000080: 80bc 63be 6102 04bf fcc0 543c 67fe 05be
00000090: b180 58be 7b9d 7bbe 0a58 dbbe dbe3 1bbe
000000a0: 1544 333d cc22 9fbe 7176 8bbd 424b cabe
000000b0: 47ab 46be c149 a5bd c2ef 9cbe b7bd 88bd
000000c0: 28e7 d2be 3268 42bf f238 b6be c951 8cbe
000000d0: d128 173f 80c8 44bd 7bf1 90be 0976 94be
000000e0: 5f26 6dbe d35b 663d 86fe 0abf 2dce 0a3e
000000f0: aef0 3bbe 775c 5fbe addc f4be 1d05 7a3d
00000100: 5202 7bbd 29b0 94be 5a86 7e3b 1a4a 4ebe
00000110: 4f91 92be afd1 60be d37d 83be bb14 b4be
00000120: 2745 53be fa4c b0bd 0786 8abd 0545 1e3d
00000130: e60d 4fbe 1454 873d d33e 76be 9cf2 9bbe
00000140: b9d2 2dbe 42a4 18bf 8357 753d 7da6 8ebd
00000150: a5ad d3be 136b 3fbe 74a1 bcbc 6d36 ca3d
00000160: 2fd4 92be 6b12 02bf 2c37 d5bc 6735 813d
00000170: d1ff f0be 488b 90be 9d1c d1be 2dad 91be
00000180: 465a 793e e1ec 02be 213e 213d 8803 c5be
00000190: 3d40 d5be 0c03 9ebe 1c09 83be b863 5e3e
000001a0: ffde 8cbe dd27 bbbc a07f 9abe d670 cdbe
000001b0: 8791 21be 552a 4a3e 4630 0cbf 5254 35be
000001c0: 32d9 44be f913 1e3e e0b9 cb3b a9ec 33be
000001d0: 30e3 33bf a656 01be 7268 50bd 16e6 00be
000001e0: 14e7 2c3d 1a72 b6bc 8970 94be f2bf a3bd
000001f0: 869c 88bd 3d1f 123d c964 20bf e915 8ebd
00000200: 6567 753e 5d66 23be bcd7 cabe 67ca 323e
00000210: 8e4d 6ebe e919 06bf 3e8d b9be 3f96 8bbe
00000220: e07d 7dbe 466a 693e 4277 babe cf0c e1be
00000230: 2426 3abc 5286 11bf 6756 9fbe 9164 dcbe
00000240: 8ac2 84be 83f1 023c 3113 f0be 37e1 67be
00000250: e712 5e3d c163 dabc a6e5 363e 3ddd b2be
00000260: 30c8 ecbe ec3b 41be f503 ac3e 713e f0bd
00000270: a859 19be 4e54 e5bd b5ae 9dbb 9bd3 11bf
00000280: 81ed a2be 9185 8e3e 8e8b 0cbf 0cbb ccbe
00000290: ef36 0dbf c202 063d b1fe 26be c7bd e9be
000002a0: cdfe 9cbe 302e 87be ae9f 9fbd a994 dcbe
000002b0: 6fb5 15bd 546d 513e 15fd 18be e293 a4be
000002c0: 286f babe 0f73 12be d0db b7be d37a c93d
000002d0: 7597 14bf 0481 a8bd 48f2 b2be 011d 7bbd
000002e0: 88ee 8ebe 9804 51be 6758 7cbe aea5 1ebf
000002f0: a32d fcbd cde0 413e 6279 c3be 18ad d7be
00000300: 1bab 463e ceaa 9dbe a00b f3be 8eb5 8cbe
00000310: 6ef9 8dbd cdb1 2e3e 929e b1be 560e 84be
00000320: 7d0c 09bf 0236 76be 7e57 283b efa0 9ebe
00000330: e254 f0be 0306 05bf b6d8 e33d 3d3e efbd
00000340: dc95 b4be 32b5 d2bd 0f43 11be b406 bcbe
00000350: db53 4ebd 35b9 03bf 6962 93bc 9a19 c1be
00000360: 7e4d 4bbe 1653 81be 909f 3abc d1d7 afbe
00000370: 53fd 28bf a5fd 7cbc 38fc 5abe a032 40be
00000380: 4175 763e 1bad 58be 8f58 ecbe 669a a4be
00000390: 7e61 e0bd 2f8d 54be 08cb 9bbd 9f37 bdbe
000003a0: b7d8 0abe f8bc 95bd e65a 8dbe d483 9bbe
000003b0: 1adb a4bb 0850 9abe d55b 11be 49a5 02bf
000003c0: f225 1ebf 8d86 7abe f6d4 143e 1830 03bf
000003d0: 2c70 f13a 154c 8c3b 849a bfbe a6a2 23bd
000003e0: 91ee 82be ac38 02be 2f6c 043e 3663 5ebd
000003f0: ea5f abbe f501 51bd f531 9bbe 5b99 86be
-0.030793652 -0.120152384 -0.48243663 -0.15130095 0.23446429 -0.25331634 -0.25542805 -0.034477107
0.8120933 0.18289174 -0.41068742 -0.2067559 -0.22000173 -0.15099725 0.21361566 -0.15805836
-0.32290092 0.15741327 -0.19906262 -0.11378841 -0.06597971 0.7390079 -0.2672705 -0.26810274
-0.081753306 -0.12393963 -0.40454805 0.39828405 -0.21855897 -0.04443125 -0.3172005 -0.3268437
-0.22239876 -0.5156613 0.012985464 -0.13085328 -0.21142842 -0.24571793 -0.42840606 -0.15223639
0.0437661 -0.31081235 -0.068097 -0.39510542 -0.19401275 -0.08070708 -0.3065167 -0.0667681
-0.41191983 -0.7594024 -0.3559032 -0.27406147 0.59046656 -0.048042774 -0.28309235 -0.28996304
-0.23159169 0.056239914 -0.5429462 0.13555212 -0.18353531 -0.21812616 -0.47824612 0.061040033
-0.06128151 -0.2904065 0.0038837404 -0.20145455 -0.28626487 -0.21954988 -0.25681934 -0.35172066
-0.20631848 -0.08608432 -0.06763845 0.03864004 -0.20220146 0.066078335 -0.24047403 -0.30458534
-0.16974916 -0.5962564 0.05989791 -0.06965349 -0.41343418 -0.1869319 -0.023026206 0.09873662
-0.28677508 -0.50809354 -0.026027285 0.06309014 -0.47070172 -0.28231263 -0.40842143 -0.28452435
0.24350843 -0.12785675 0.03936589 -0.38479257 -0.41650572 -0.308617 -0.25592887 0.21717727
-0.27513883 -0.022846157 -0.30175495 -0.4012515 -0.1577817 0.19742711 -0.5476116 -0.17707947
-0.19223478 0.15437306 0.0062172264 -0.17570747 -0.70268536 -0.1263071 -0.050880857 -0.12587771
0.04221256 -0.022271205 -0.28992108 -0.07995595 -0.066704795 0.035674322 -0.62653786 -0.06937773
0.23965223 -0.15957017 -0.39617717 0.17460023 -0.23271772 -0.52383286 -0.36240572 -0.27263066
-0.24755049 0.22794446 -0.36419111 -0.43955085 -0.0113616325 -0.5684558 -0.31120607 -0.43045476
-0.25929672 0.007992151 -0.46889642 -0.22644506 0.054217245 -0.026658894 0.17861041 -0.34934416
-0.4624648 -0.18870515 0.3359677 -0.1173066 -0.14975607 -0.111977205 -0.0048120865 -0.5696351
-0.31821826 0.27836278 -0.54900444 -0.39986455 -0.55161947 0.032717474 -0.16308095 -0.456526
-0.30663148 -0.26402426 -0.07794128 -0.4308217 -0.03654998 0.20451862 -0.14940293 -0.32144076
-0.3641293 -0.14301704 -0.3590989 0.0983788 -0.58043605 -0.08227733 -0.3495047 -0.061306957
-0.2791636 -0.20411909 -0.24643098 -0.6197156 -0.12313392 0.18933411 -0.38178545 -0.42124248
0.19401209 -0.30794376 -0.47469807 -0.27482265 -0.069323406 0.17060013 -0.34691292 -0.25792187
-0.5353468 -0.2404404 0.0025686915 -0.30982158 -0.4693976 -0.519623 0.11125319 -0.11681793
-0.35270584 -0.102884665 -0.14185737 -0.36723864 -0.05037294 -0.5145448 -0.017991262 -0.37714845
-0.1985378 -0.25258702 -0.011390582 -0.34344342 -0.6601154 -0.015441333 -0.21385276 -0.18769312
0.24068166 -0.21159784 -0.46161315 -0.32149047 -0.10956095 -0.20756982 -0.076070845 -0.36956498
-0.13559233 -0.073114336 -0.27608413 -0.30374014 -0.0050310018 -0.30139184 -0.14195187 -0.51033455
-0.6177665 -0.2446539 0.14534363 -0.5124526 0.0018420271 0.0042815306 -0.37422574 -0.039950036
-0.25572637 -0.12716931 0.12931894 -0.054293834 -0.33471614 -0.051027257 -0.30311552 -0.26288876

linear2.weight f4 [3, 512]
00000000: 94d9 f03d 187b b8be dc53 bdbe 9564 53bf
00000010: 084c adbe 80aa abbe cccc 56bc 089d 94be
00000020: 8c90 0a3f 2282 6ebe 65bd f7be 1653 65be
00000030: 7715 6a3d 2af9 f33c b695 bbbe 9f47 dfbc
00000040: 79c0 1bbf 9fac 34bf f320 72be 9246 cabb
00000050: 917a 61bf 41a9 853e d553 cdbc e874 5fbf
00000060: c969 5c3d ce76 05bf 9187 b63c d615 503f
00000070: 6ee9 8c3e 2fe9 ba3d 07fc 32bd fbb8 39be
00000080: f019 2e3a 7dba 0cbf c39e dfbe eca9 c2bd
00000090: 7a87 153e 080f 11bc 5301 b2be b34e d03c
000000a0: e744 b4bd 743d d4bc 1595 05bf 20e8 a0bd
000000b0: 7240 15bb 4786 603d 705d 6cbe d3f7 9f3e
000000c0: 6da5 0abe 222e 703c 955b 82be c5e8 4abc
000000d0: c427 393f f6dc 263d d89a c53d beca 273b
000000e0: e523 103c 54e3 b03d d3c3 5cbe 42eb 95be
000000f0: 98ab 45bd 7d38 dc3d 42e8 1fbf b0e9 7ebe
00000100: 82bc e13d 961e 1fbe ce6a 89be 25a4 743a
00000110: 7833 e2bc a04c debe 9b8c 893c 4534 88be
00000120: cb94 afbe c8f5 9c3d 3e36 cf3e c5b1 86bd
00000130: 8622 903d f459 2dbe 5135 aebd 35e7 363c
00000140: 3aa5 4ebe f390 873d bde7 3d3d 83d9 46bf
00000150: 4720 29be 1277 9abe e1bb 3dbd 0c85 a63e
00000160: 1810 ff3d d9ab 203e a734 5f3e 8eef 01bf
00000170: e9b3 71bc d8da 85be 27b0 d53a 3175 183d
00000180: 2517 913e 4251 a43c 9c9d 5f3e 75d7 323a
00000190: 7ad4 123d 4d77 003d 5d8d 4a3e df5b 273e
000001a0: 0607 713e 6b46 9bbe 29ba bd38 5d54 9abd
000001b0: ca58 49bf ffdb 573e 73cf f13c 95ae 21bf
000001c0: c918 fdbe c8cd ae3e d474 72bc 8ae3 c2be
000001d0: 6407 1d3e 3d8f 103f 6d11 52be bbbc 24bf
000001e0: 2165 47bf dab3 6ebf 28a7 4f3d acbd 93bd
000001f0: 0d51 87bf 1de9 e03e f0b5 90bd baf3 10bf
00000200: 0fa6 3dbf 1f8c ee3d 744e 02bf 8ba4 6d3d
00000210: 5ee1 b4be 3ff1 8fbe b481 a8be a3eb 0bbf
00000220: 4ad2 1ebe af5e bc3e ecf4 b5bc 9125 0839
00000230: 2ac0 403d 5087 903d a6b3 9d3d b6b5 53be
00000240: c65a 89be 9e9c 13bf 999e 1ebe b1fa c33c
00000250: bfef 9fbe 3c8e 373d 8268 263d 4b96 a4bc
00000260: b31f aabd 3819 ad3c c0d6 b33e b4c4 efbe
00000270: bb3a bc3d ad59 1b3d 9c32 0fbf 5828 a6bd
00000280: 9a47 bbbe c7f7 32bd 1bde 13be fa7b c7be
00000290: 5d11 0b3b e5cc c5bd 5c21 00be 3162 1ebe
000002a0: 0ffb 203e 9048 9bbd 5116 f0be db5c bebe
000002b0: 3b4f 643d e64f 2bbf 2989 c3be fe7b 92be
000002c0: cd5a 7abe 2935 c63d ea93 173e 71db 76be
000002d0: 46cf e1bd 8860 5abe 68ef 9abe 1fdc 5dbe
000002e0: e22d d1bd 7fc1 073f f326 dbbe d229 c4be
000002f0: 44bd 16bb 9f25 0c3d cd74 623e 9d98 0b3c
00000300: 3233 a1b8 2932 80bd fbc6 e53c b70a 293d
00000310: 381d 813c 8eea bb3e e7b6 63be 65a5 0c3c
00000320: 44f9 4abc 74e0 813e 4ba8 f5be f3ac 2abe
00000330: 991b 30be d2ac 50be 7f4e d83d 4745 413c
00000340: ebac ddbc 1d6d 653d 40c3 9abe 2172 a23c
00000350: 3669 cc3d d011 7c3d 221c 01bf ec90 11bf
00000360: e288 d13c 28d3 eabc a070 64bc 7ea0 71be
00000370: 1409 89bc e876 c2be 0031 443c 5a8a 9cbd
00000380: 5cc7 b53e e085 633d 5232 0dbf d099 1e3e
00000390: 73de 54bc 06bb 74be 4ea0 1ebc 1dbb cabe
000003a0: 95fa 843d 9881 c8bd 4895 56bd 5e37 ccbc
000003b0: 1fd7 5ebf 297b edbc c481 643e a4f6 e43c
000003c0: 8b62 49bf ddd9 533e 5d39 073f 7c38 d9be
000003d0: bc8f 8f3e 7cdd 51bf 3537 40be af6e 773d
000003e0: 14ec 77bf 46c0 3fbd a329 883c 70ff 643e
000003f0: 42bb 5ebe 0879 2fbf 47d8 a0be ccc7 9e3c
0.1176025 -0.36031413 -0.36978042 -0.8257535 -0.3384707 -0.3352852 -0.013110351 -0.29026055
0.5412681 -0.23291829 -0.48386684 -0.22394976 0.057149377 0.029781897 -0.36637658 -0.027255831
-0.60840565 -0.705759 -0.23645382 -0.0061729634 -0.88077646 0.26105693 -0.025064388 -0.8728776
0.053811822 -0.52134407 0.02228144 0.8128332 0.27521843 0.091265075 -0.043697383 -0.1813697
0.0006641438 -0.5497206 -0.43675813 -0.09505066 0.14602461 -0.008853681 -0.34766635 0.025428152
-0.088022046 -0.02590821 -0.52180606 -0.07856774 -0.0022774008 0.054815557 -0.23082519 0.31243762
-0.13539667 0.014659436 -0.25460497 -0.012384598 0.723263 0.04073807 0.09648675 0.0025603021
0.00879762 0.086371094 -0.21559076 -0.2928105 -0.048259348 0.10752962 -0.6246377 -0.24893832
0.11022283 -0.15539011 -0.26839298 0.0009332321 -0.027612433 -0.43417835 0.016790679 -0.26602378
-0.34293208 0.076640666 0.4047107 -0.065768756 0.07037835 -0.16928846 -0.08506263 0.0111635225
-0.20180216 0.06619444 0.04636358 -0.77675647 -0.16516219 -0.30168968 -0.046321753 0.32523382
0.124542415 0.15690555 0.21797429 -0.50756156 -0.014752367 -0.26143527 0.0016303108 0.037221137
0.2833797 0.020058278 0.21837467 0.0006822267 0.035847165 0.031363774 0.19780488 0.1634364
0.23537835 -0.30327162 9.046897e-05 -0.07535622 -0.78651106 0.21080016 0.029517865 -0.63157016
-0.49432972 0.34141374 -0.014798362 -0.38064224 0.1533485 0.56468564 -0.2051446 -0.6435048
-0.77888685 -0.9324318 0.050696522 -0.072139114 -1.057161 0.4392785 -0.07065952 -0.566219
-0.7408151 0.1164782 -0.5090096 0.05801825 -0.35328192 -0.28113744 -0.32911456 -0.5465643
-0.15509906 0.36790988 -0.022211514 0.00012983965 0.047058262 0.07057059 0.07700281 -0.20674786
-0.26827067 -0.57660854 -0.15490188 0.02392325 -0.312376 0.04481338 0.04062701 -0.020091197
-0.083068274 0.02113019 0.3512478 -0.4682976 0.091908894 0.03792732 -0.559366 -0.08113164
-0.36578065 -0.04369333 -0.14440195 -0.38961774 0.0021220066 -0.09658221 -0.12512726 -0.15467145
0.15720771 -0.075821996 -0.46892026 -0.37180218 0.055739623 -0.6691879 -0.38190582 -0.28610224
-0.244487 0.09678108 0.14802518 -0.24107148 -0.110258624 -0.21325886 -0.30260777 -0.21666001
-0.102138296 0.53029627 -0.42803153 -0.38313156 -0.0023000995 0.034215566 0.22114868 0.008520273
-7.686614e-05 -0.06259567 0.028048983 0.041269984 0.015761003 0.3670239 -0.2223774 0.008584355
-0.012388531 0.25366557 -0.4797996 -0.16667537 -0.17198028 -0.20378426 0.10561847 0.011796302
-0.027059993 0.05601226 -0.3022709 0.019829812 0.09981005 0.061540425 -0.5043355 -0.5686176
0.025577966 -0.02866514 -0.0139428675 -0.23596379 -0.016727962 -0.37981343 0.011974573 -0.07643576
0.35503662 0.055547595 -0.5515491 0.15488362 -0.012992489 -0.23899469 -0.009681774 -0.3959588
0.06493107 -0.09790343 -0.05238846 -0.024928745 -0.87047 -0.028989391 0.22315127 0.027949639
-0.7866599 0.20688577 0.52821904 -0.42425907 0.28039348 -0.81978583 -0.1877106 0.06040829
-0.968446 -0.046814226 0.016621416 0.22363067 -0.2175112 -0.68544054 -0.31415007 0.01938238

linear2.bias f4 [3]
00000000: 709a bb3e 6acd 623e 92d4 fb3d
0.36641264 0.22148672 0.12296404
